HW01/models/model.pth (torch, 80695 bytes, 7 tensors)

net.0.weight f4 [64, 42]
0.09073606 0.008053344 -0.040550202 0.0011371103 0.058385387 0.10042922 0.04836517 -0.100460775
0.10734235 -0.016643563 0.15884794 0.13778198 -0.028265404 0.028771041 0.024662282 -0.04038089
0.08319631 0.009587544 0.13220175 0.14462921 0.15670492 0.16566966 -0.057108726 -0.01659072
-0.113476835 0.16005309 -0.0015923291 0.005199113 -0.12638597 -0.057216756 0.022299418 0.019618979
-0.121163666 -0.13067351 -0.05678272 -0.068573944 0.08208281 0.029947195 -0.035569336 -0.063020095
0.03209901 0.39339823 -0.10119984 -0.0567 -0.090275906 -0.038719684 -0.00906208 0.031941645
-0.16272517 -0.111157686 -0.14891791 -0.04223429 0.029419472 0.056762192 0.020972308 -0.11302315
0.062176663 0.050938495 -0.015054045 -0.056979354 -0.060300022 -0.09545137 -0.07005628 0.021784274
0.09197796 -0.12270019 0.098416135 -0.14977637 0.09785706 -0.13139671 0.069068484 -0.104799025
0.11765644 0.12779032 -0.024700006 -0.08082492 0.12605019 -0.11045712 -0.06540237 0.038771037
-0.027989382 -0.070367984 -0.058219258 -0.24049781 0.037866753 -0.03309864 -0.06904525 0.046983395
-0.042653766 -0.15495498 -0.020531138 0.13653019 0.14660966 -0.16223596 -0.14361607 0.049176153
-0.1428165 0.041435067 -0.063967325 0.103293784 -0.10848901 -0.15944701 -0.10166307 -0.097742744
-0.12823695 0.037897512 0.15923366 0.082019076 -0.062014695 -0.044101864 0.0122784125 -0.06860388
-0.013268015 0.11838576 0.100307465 -0.053225935 0.07549556 0.12189357 0.16587012 0.056355923
0.16933043 -0.030841144 -0.011393195 -0.052267503 0.1316402 0.05815331 -0.052077357 0.07396159
0.08975152 0.0057627903 -0.16189694 -0.006727773 -0.05093873 0.12881805 0.10228883 -0.018891215
0.0063072173 0.009401223 -0.11530557 -0.012032101 0.097690485 -0.07500468 -0.042209 -0.0014124517
0.0013770945 -0.01204469 -0.14872019 0.030269567 -0.10513926 -0.0057496615 0.111596726 0.15079951
-0.00420629 -0.06293161 0.12053955 0.050447542 -0.045824297 -0.08287889 -0.017035982 0.046817042
-0.15625168 0.06712928 -0.13451539 0.011757331 0.025648588 0.1339233 0.0025344943 0.17212503
0.15210739 -0.08292281 -0.048138827 0.008918228 0.0026137515 0.09330486 -0.101271145 0.05344734
0.0012020001 0.019786408 0.14792398 0.05323808 0.14522418 0.015186834 -0.071151994 -0.0064130584
0.037020482 -0.15061523 -0.14239089 -0.14282225 -0.111529626 -0.14265151 -0.088663146 0.14707841
0.073914856 0.07080076 0.04487743 0.035936132 -0.08828446 -0.0669608 0.027267352 -0.1455433
0.048079286 0.13213737 0.07740604 -0.14764455 0.022632444 0.10697346 0.047632944 0.09942419
0.09938904 -0.08252173 -0.005729576 0.11537933 -0.15297009 0.040898915 -0.01969047 0.0144758085
0.007075209 0.010771286 -0.0021606677 0.09106837 -0.13614851 -0.15979311 -0.061072093 -0.100201175
0.0009861565 0.06648875 0.0951864 -0.06216764 -0.05192175 -0.08070964 -0.05121242 -0.055329118
0.098794796 -0.0003613158 -0.10652199 -0.05837638 -0.021426365 0.0021625175 0.1208168 -0.07104782
0.047124103 -0.08215914 0.05636028 0.0718577 -0.01060802 0.08528101 0.024399294 0.0056585465
-0.032334343 -0.073672734 0.14793785 0.21066184 -0.19511256 -0.18534829 -0.07945438 0.06409046
00000000: d4d3 b93d 2cf2 033c f817 26bd 170b 953a
00000010: 8425 6f3d d6ad cd3d 8e1a 463d 61be cdbd
00000020: 4ed6 db3d 1558 88bc 09a9 223e b816 0d3e
00000030: d98c e7bc 3fb1 eb3c 8e08 ca3c 6f66 25bd
00000040: d462 aa3d 1315 1d3c e55f 073e ae19 143e
00000050: 4177 203e 4fa5 293e d7ea 69bd 43e9 87bc
00000060: 8b66 e8bd f5e4 233e b3b5 d0ba 525d aa3b
00000070: 536b 01be 1e5c 6abd 45ad b63c fbb7 a03c
00000080: a824 f8bd 47cf 05be ff94 68bd 7f70 8cbd
00000090: 081b a83d d253 f53c 27b1 11bd ae10 81bd
000000a0: 407a 033d 7e6b c93e dd41 cfbd 423e 68bd
000000b0: 93e2 b8bd 8898 1ebd 1e79 14bc 3ed5 023d
000000c0: 6da1 26be a4a6 e3bd f07d 18be ddfd 2cbd
000000d0: 1b01 f13c 797f 683d 1ece ab3c ae78 e7bd
000000e0: f5ac 7e3d e2a4 503d 3ea5 76bc 2f63 69bd
000000f0: 28fd 76bd 027c c3bd ab79 8fbd ef74 b23c
00000100: f15e bc3d 3d4a fbbd 668e c93d fa5e 19be
00000110: 4869 c83d dc8c 06be c773 8d3d dfa0 d6bd
00000120: dcf5 f03d 77db 023e ab57 cabc 8987 a5bd
00000130: 4d13 013e 5837 e2bd aef1 85bd 61ce 1e3d
00000140: fd49 e5bc 171d 90bd 5177 6ebd 0f45 76be
00000150: 2b1a 1b3d 7192 07bd 9967 8dbd a971 403d
00000160: b7b5 2ebd 85ac 1ebe eb30 a8bc 92ce 0b3e
00000170: d820 163e 2f21 26be 1710 13be ef6c 493d
00000180: 7d3e 12be d1b7 293d 4d01 83bd b18b d33d
00000190: 7c2f debd 1446 23be ba34 d0bd 592d c8bd
000001a0: 8c50 03be 6c3a 1b3d 260e 233e 9ef9 a73d
000001b0: 1f03 7ebd 28a4 34bd 652b 493c 3180 8cbd
000001c0: 1762 59bc 3c74 f23d 006e cd3d 7003 5abd
000001d0: 6b9d 9a3d 56a3 f93d dbd9 293e 78d5 663d
000001e0: f564 2d3e 91a6 fcbc 86aa 3abc 7316 56bd
000001f0: b0cc 063e 2a32 6e3d 114f 55bd 2d79 973d
00000200: a5cf b73d cad5 bc3b 50c8 25be a774 dcbb
00000210: 21a5 50bd e1e8 033e ce7c d13d c0c1 9abc
00000220: c6ac ce3b 9607 1a3c 5425 ecbd 4a22 45bc
00000230: f311 c83d 0e9c 99bd 58e3 2cbd 0422 b9ba
00000240: a07f b43a 1757 45bc 1b4a 18be e2f7 f73c
00000250: 4153 d7bd a867 bcbb d38c e43d 306b 1a3e
00000260: ebd4 89bb 4ae2 80bd 71dd f63d 15a2 4e3d
00000270: 42b2 3bbd 68bc a9bd 0b8f 8bbc 3ac3 3f3d
00000280: 7100 20be 137b 893d 67be 09be d2a1 403c
00000290: fd1c d23c 3123 093e c219 263b 8b41 303e
000002a0: 0ac2 1b3e 6fd3 a9bd 382d 45bd c21d 123c
000002b0: 794b 2b3b 9e16 bf3d 3f67 cfbd 99eb 5a3d
000002c0: 6e8c 9d3a 1b17 a23c 6279 173e 2c10 5a3d
000002d0: a6b5 143e 33d2 783c 23b8 91bd a224 d2bb
000002e0: caa2 173d e13a 1abe ebce 11be ff3f 12be
000002f0: a569 e4bd 3d13 12be 0695 b5bd b99b 163e
00000300: ac60 973d fdff 903d 65d1 373d c431 133d
00000310: 7cce b4bd be22 89bd c85f df3c 4e09 15be
00000320: c9ee 443d 054f 073e 0f87 9e3d 2230 17be
00000330: ad67 b93c e714 db3d c31a 433d e99e cb3d
00000340: 7b8c cb3d 2701 a9bd 2bbf bbbb 004c ec3d
00000350: 31a4 1cbe 9f85 273d e94d a1bc f12b 6d3c
00000360: 28d7 e73b 0c7a 303c fd99 0dbb 0e82 ba3d
00000370: 846a 0bbe cea0 23be bb26 7abd 4636 cdbd
00000380: ec41 813a 412b 883d 16f1 c23d 7fa3 7ebd
00000390: e7ab 54bd 194b a5bd 1dc4 51bd c9a0 62bd
000003a0: ed54 ca3d fc6e bdb9 3328 dabd 121c 6fbd
000003b0: 5886 afbc 06b9 0d3b cc6e f73d 8581 91bd
000003c0: 3405 413d 0d43 a8bd 09da 663d 212a 933d
000003d0: 43cd 2dbc cfa7 ae3d 07e1 c73c 546b b93b
000003e0: 0471 04bd bbe1 96bd 057d 173e bdb7 573e
000003f0: 96cb 47be f1cb 3dbe fab8 a2bd dc41 833d

net.0.bias f4 [64]
0.041739013 -0.088973895 -0.21291701 -0.12095793 -0.12331336 0.017334301 0.03125559 0.033157222
-0.113129444 -0.023369499 -0.068930514 -0.15576887 -0.17117164 0.002128237 0.12140296 0.011922458
-0.080551766 0.24366431 -0.168074 -0.16600864 -0.100014046 -0.0792704 0.19541682 0.13894032
0.08063696 -0.006109516 -0.028264552 -0.14495738 0.13916574 0.03571084 -0.07051908 -0.15607607
-0.045088965 -0.12264094 -0.08193997 -0.0009492826 -0.06973133 -0.09390132 -0.027882539 -0.07288804
-0.049985364 0.070184216 0.17065415 -0.13126114 -0.048393983 0.093503565 0.002878946 -0.027572187
-0.023172002 0.012848285 -0.12824248 -0.18399362 -0.12777986 0.053468578 0.0017720968 -0.08255875
-0.0059095635 -0.06441044 -0.013467513 -0.0021241398 -0.15853366 -0.12542973 -0.10346225 -0.06763933
00000000: 87f6 2a3d f237 b6bd eb06 5abe cbb8 f7bd
00000010: b78b fcbd aa00 8e3c dd05 003d decf 073d
00000020: 69b0 e7bd 6471 bfbc 712b 8dbd e081 1fbe
00000030: 9e47 2fbe e479 0b3b 1da2 f83d 6a56 433c
00000040: 53f8 a4bd 2383 793e 971b 2cbe 2bfe 29be
00000050: 2ad4 ccbd 8558 a2bd 591b 483e 5f46 0e3e
00000060: fe24 a53d 5632 c8bb 108b e7bc b56f 14be
00000070: 7781 0e3e 8845 123d 4f6c 90bd 68d2 1fbe
00000080: 35af 38bd 2c2b fbbd 25d0 a7bd 47d9 78ba
00000090: 4dcf 8ebd 564f c0bd ec69 e4bc 5346 95bd
000000a0: 74bd 4cbd bebc 8f3d f6bf 2e3e 5269 06be
000000b0: c538 46bd cc7e bf3d b3ac 3c3b 11df e1bc
000000c0: 36d3 bdbc 9d81 523c ff51 03be d368 3cbe
000000d0: b9d8 02be de01 5b3d b445 e83a 9014 a9bd
000000e0: 03a5 c1bb 9fe9 83bd d8a6 5cbc 2735 0bbb
000000f0: a656 22be a770 00be 04e4 d3bd 7d86 8abd

net.2.weight f4 [128, 64]
0.02441601 -0.050436225 -0.14816576 -0.011487721 0.07406054 0.049458224 0.0070669954 0.046291467
-0.08200287 -0.055549115 -0.05785873 0.080636404 0.07349851 -0.047204196 0.08152153 -0.04832924
-0.047107417 0.059609868 -0.07497737 0.11086738 -0.009825401 -0.11654364 0.02653531 0.12934574
-0.05545941 -0.09184259 0.11815321 0.08870484 -0.026478818 -0.043066896 0.020034337 0.09953526
0.023444446 0.06124036 0.005084309 0.024853697 0.04341783 -0.030944511 -0.11194283 0.06385013
-0.05194927 -0.11331671 0.12835114 0.08012126 -0.03712705 0.105639264 -0.03253768 0.07043267
0.07875079 0.10125408 0.009388983 -0.08971987 -0.08368832 0.050514035 -0.07703971 0.0035334441
0.11526917 -0.09155412 -0.005839775 0.07359533 -0.1235144 0.081824556 -0.014707218 0.08844097
0.10819072 -0.107614525 -0.0039885533 0.08260364 -0.0739445 0.044182137 -0.06373842 0.043254394
0.022160275 0.08725433 0.043865543 -0.05696755 0.019694695 -0.04389705 -0.06976416 0.020247072
0.10530643 0.13338141 -0.10885706 -0.024550889 -0.05541203 0.07075216 -0.0017675404 -0.08595587
0.13175151 -0.050087005 0.012356917 0.027490456 0.0416663 -0.037624884 -0.022451358 0.003315513
0.0692354 -0.15119466 0.11925449 -0.03116739 -0.0040819272 -0.0093562445 -0.07706594 -0.09198516
0.030038323 -0.055220865 0.12938623 -0.033654835 -0.10131142 -0.05881614 -0.016877305 0.0758398
-0.07539297 -0.04921222 0.03182393 -0.09446092 0.080525145 -0.08880615 0.01973535 0.08247784
0.046334773 0.027460417 -0.13701198 0.09945042 -0.13119164 -0.09103861 0.086336076 0.0904189
-0.019182237 0.004234956 -0.07764517 0.06002111 0.0076958747 0.104693405 -0.05885549 0.10745485
-0.03130476 0.04697677 -0.10884816 -0.08353968 0.046310037 -0.008117213 0.07958896 -0.013772795
0.00811499 0.114040986 -0.03369055 0.085179165 -0.07896063 -0.09568189 -0.07153357 -0.111511245
0.086458705 -0.08696038 0.10461766 -0.0769657 0.011970928 -0.056311738 0.02843969 0.09231949
0.08026909 0.09986877 -0.004443695 -0.03446717 0.0010508782 -0.052176367 -0.04171511 0.01838404
-0.091147564 0.07665835 -0.017386667 -0.02913369 -0.09702846 -0.038196158 -0.036917444 -0.02422097
0.092987776 -0.11664237 -0.119592346 -0.02279638 -0.057285275 0.099701494 0.0124362055 0.100689895
-0.102276884 0.06962783 -0.0045189317 -0.06106685 0.12200219 0.030039415 0.1171796 -0.02858153
0.077350125 0.043973994 0.032854788 0.00359709 -0.089775994 -0.042322587 0.091116115 0.037549824
-0.042392913 -0.08787643 -0.01244516 0.11122379 0.0128361955 0.05241171 0.008708496 0.08829426
-0.055173177 -0.12153368 -0.07301958 0.08067543 0.027749836 0.08563602 -0.08845043 -0.1104031
-0.024397094 -0.08462195 0.023140933 0.10563265 -0.113618255 0.1140724 -0.039141715 0.08067258
-0.037058257 -0.006013374 0.05157791 -0.047215924 0.037479304 -0.10750514 -0.020176005 -0.071719386
-0.034135506 -0.07288646 0.041543953 -0.014648513 0.08321466 -0.106261134 -0.0041288664 0.121650465
-0.0929609 0.08143432 -0.013401781 -0.07965515 -0.11737804 -0.10279267 -0.07615088 0.050256327
-0.08090322 0.034680754 0.034233242 -0.086413674 0.07800462 -0.004551396 -0.047045134 0.0703021
00000000: 1604 c83c 3796 4ebd c4b8 17be ff36 3cbc
00000010: 0dad 973d b594 4a3d 4192 e73b 1f9c 3d3d
00000020: 1ff1 a7bd 7887 63bd 47fd 6cbd b324 a53d
00000030: 6386 963d 3059 41bd c3f4 a63d e2f4 45bd
00000040: b5f3 40bd 7a29 743d bc8d 99bd 700e e33d
00000050: b8fa 20bc 6fae eebd 9460 d93c 3673 043e
00000060: 6829 63bd f817 bcbd 4ffa f13d e2aa b53d
00000070: 1bea d8bc ea66 30bd 0d1f a43c 24d9 cb3d
00000080: 910e c03c 2cd7 7a3d 469a a63b fb99 cb3c
00000090: e5d6 313d 587f fdbc 4842 e5bd dbc3 823d
000000a0: c2c8 54bd 9712 e8bd 7b6e 033e 9d16 a43d
000000b0: 8912 18bd 6659 d83d 3b46 05bd 013f 903d
000000c0: 1848 a13d 4d5e cf3d 40d4 193c 0dbf b7bd
000000d0: c864 abbd cee7 4e3d ffc6 9dbd 5b91 673b
000000e0: 3e12 ec3d ba80 bbbd 955b bfbb 26b9 963d
000000f0: 1ef5 fcbd a293 a73d 8bf6 70bc 8a20 b53d
00000100: 1993 dd3d 0165 dcbd 69b2 82bb 192c a93d
00000110: 3770 97bd 54f8 343d 4a89 82bd 852b 313d
00000120: 7789 b53c 66b2 b23d 5bac 333d ce56 69bd
00000130: c556 a13c 65cd 33bd 83e0 8ebd 30dd a53c
00000140: e6aa d73d 2395 083e 73f0 debd f21e c9bc
00000150: baf7 62bd 82e6 903d d0ac e7ba a209 b0bd
00000160: dee9 063e 0828 4dbd ab74 4a3c aa33 e13c
00000170: 48aa 2a3d 8d1c 1abd e9eb b7bc 1449 593b
00000180: 4acb 8d3d c6d2 1abe b33b f43d c152 ffbc
00000190: b0c1 85bb ef4a 19bc bfd4 9dbd b762 bcbd
000001a0: ee12 f63c 462f 62bd d37d 043e a7d9 09bd
000001b0: 5d7c cfbd 31e9 70bd 4642 8abc e651 9b3d
000001c0: a167 9abd c192 49bd cf59 023d ba74 c1bd
000001d0: 5eea a43d 00e0 b5bd 07ac a13c 24ea a83d
000001e0: 88c9 3d3d abf4 e03c de4c 0cbe a9ac cb3d
000001f0: 1a57 06be 7372 babd f8d0 b03d 8b2d b93d
00000200: 1124 9dbc 63c5 8a3b 6e04 9fbd b2d8 753d
00000210: ad2d fc3b 7f69 d63d 7412 71bd 4a11 dc3d
00000220: 6c39 00bd b76a 403d c9eb debd da16 abbd
00000230: 98af 3d3d 0ffe 04bc 89ff a23d 4aa7 61bc
00000240: bcf4 043c 528e e93d 1aff 09bd 6a72 ae3d
00000250: 1cb6 a1bd def4 c3bd 3180 92bd 0260 e4bd
00000260: 4311 b13d 4918 b2bd c941 d63d 31a0 9dbd
00000270: b621 443c 23a7 66bd 5afa e83c 0012 bd3d
00000280: 1f64 a43d ff87 cc3d 6a9c 91bb 722d 0dbd
00000290: 9fbd 893a e3b6 55bd 77dd 2abd 209a 963c
000002a0: 93ab babd 0eff 9c3d 7c6e 8ebc c7a9 eebc
000002b0: dbb6 c6bd 9373 1cbd bf36 17bd 0e6b c6bc
000002c0: 6070 be3d 32e2 eebd d5ec f4bd 79bf babc
000002d0: f7a3 6abd 4c30 cc3d 3ac1 4b3c 8136 ce3d
000002e0: 8b76 d1bd 0999 8e3d 8c13 94bb 3c21 7abd
000002f0: 49dc f93d 3815 f63c dcfb ef3d d023 eabc
00000300: be69 9e3d 131e 343d be92 063d 28bd 6b3b
00000310: 7adc b7bd 735a 2dbd 169b ba3d d8cd 193d
00000320: 31a4 2dbd 8ff8 b3bd c9e6 4bbc 4cc9 e33d
00000330: e84e 523c a9ad 563d 14ae 0e3c 9fd3 b43d
00000340: 45fd 61bd a6e6 f8bd 4a8b 95bd 2939 a53d
00000350: a053 e33c f061 af3d 8025 b5bd 051b e2bd
00000360: 6adc c7bc 464e adbd 0e92 bd3c ee55 d83d
00000370: b0b0 e8bd ca9e e93d 1053 20bd aa37 a53d
00000380: 66ca 17bd d60b c5bb 5c43 533d 7c65 41bd
00000390: e683 193d a82b dcbd 2648 a5bc 9de1 92bd
000003a0: acd1 0bbd 7f45 95bd fe29 2a3d 5100 70bc
000003b0: 736c aa3d 709f d9bd 714b 87bb e123 f93d
000003c0: 4962 bebd 09c7 a63d 2593 5bbc 3d22 a3bd
000003d0: e663 f0bd f784 d2bd fef4 9bbd 94d9 4d3d
000003e0: 96b0 a5bd 680d 0e3d 2838 0c3d a7f9 b0bd
000003f0: e3c0 9f3d e023 95bb 66b2 40bd 8cfa 8f3d

net.2.bias f4 [128]
-0.08832085 0.19267038 -0.05348832 -0.08975324 0.021138486 0.36292073 -0.04774323 -0.0641966
-0.11228858 0.14597018 0.23346426 -0.02987291 -0.026070682 -0.024250867 -0.0425532 -0.01496218
0.09586478 0.127117 0.17816593 0.21268399 -0.08896787 -0.05849956 0.23747696 0.22834699
-0.088114694 0.005034978 0.31775066 0.1641001 0.148722 0.017830638 0.011951911 0.16524503
-0.10148573 0.006621564 0.19031823 -0.13744834 -0.10768163 -0.0848602 0.29731965 0.02508943
0.24437957 0.08544498 0.3439193 -0.10137094 -0.075302385 -0.121018454 0.031542018 0.1632822
-0.092057034 0.07502897 -0.022543654 0.059227645 0.1340641 0.23933429 0.055094194 -0.092091754
-0.037009176 0.013268409 0.03388742 0.08832716 0.16626829 -0.0014651808 0.13199042 0.14685756
0.017143419 0.2640669 -0.11724283 0.18491878 -0.098999634 0.037461556 -0.0041965414 -0.10825895
-0.0027567053 -0.067133196 0.21062638 -0.04533934 -0.070982486 -0.052230276 0.0038367428 0.10879861
-0.1042716 0.14297132 -0.05886084 -0.10493993 0.03697949 0.102765664 -0.027487973 0.3306133
-0.051581852 0.313006 0.20622386 0.3028672 0.07776816 0.2417284 0.04498407 0.1461317
-0.0997803 0.047538575 0.016986787 -0.10663349 0.07594858 0.3681663 -0.00668715 0.16275443
-0.015334894 0.011522889 -0.09476217 0.102904186 0.256849 -0.103505045 -0.060298517 0.109882414
-0.09011234 -0.04733024 0.3258127 0.15795606 0.06784329 -0.07460669 0.17478211 0.048060603
-0.09225784 0.07338281 -0.023205575 0.017161887 0.15764575 0.2400859 -0.1533827 0.06861769
00000000: 90e1 b4bd 624b 453e 9216 5bbd 8cd0 b7bd
00000010: 9e2a ad3c bfd0 b93e 688e 43bd 8279 83bd
00000020: 8ef7 e5bd 3579 153e 4111 6f3e 08b8 f4bc
00000030: 2f92 d5bc c1a9 c6bc 444c 2ebd ee23 75bc
00000040: c154 c43d f52a 023e 2171 363e d5c9 593e
00000050: c934 b6bd 3c9d 6fbd 292d 733e cbd3 693e
00000060: 7a75 b4bd 75fc a43b 37b0 a23e db09 283e
00000070: 944a 183e 8f11 923c f3d1 433c fe35 293e
00000080: c0d7 cfbd b4f9 d83b c8e2 423e 42bf 0cbe
00000090: 3088 dcbd 2fcb adbd 483a 983e 5988 cd3c
000000a0: a33e 7a3e c7fd ae3d 3116 b03e 919b cfbd
000000b0: 2338 9abd 86d8 f7bd 3432 013d 7333 273e
000000c0: 6688 bcbd caa8 993d 78ad b8bc b098 723d
000000d0: 1948 093e 0c14 753e 73aa 613d 9a9a bcbd
000000e0: ef96 17bd be63 593c 89cd 0a3d dfe4 b43d
000000f0: 3c42 2a3e 4f0b c0ba 7f28 073e d461 163e
00000100: 5b70 8c3c c733 873e 021d f0bd 595b 3d3e
00000110: 52c0 cabd 4a71 193d 2483 89bb deb6 ddbd
00000120: d7a9 34bb 217d 89bd 71ae 573e beb5 39bd
00000130: 445f 91bd 6aef 55bd dd71 7b3b ced1 de3d
00000140: 598c d5bd 1367 123e 1018 71bd bfea d6bd
00000150: ce77 173d ce76 d23d 752e e1bc 2546 a93e
00000160: 7e47 53bd 5342 a03e 592c 533e 6911 9b3e
00000170: ea44 9f3d a687 773e 3741 383d 8ca3 153e
00000180: 9d59 ccbd cfb7 423d e027 8b3c a962 dabd
00000190: ee8a 9b3d 4b80 bc3e e11f dbbb 19a9 263e
000001a0: 353f 7bbc 80ca 3c3c ab12 c2bd 6ebf d23d
000001b0: b681 833e 74fa d3bd 94fb 76bd 080a e13d
000001c0: d28c b8bd 5bdd 41bd ecd0 a63e 3cbf 213e
000001d0: 6cf1 8a3d 64cb 98bd 15fa 323e 32db 443d
000001e0: aef1 bcbd ba49 963d 9e19 bebc 1697 8c3c
000001f0: e36d 213e 14d9 753e 5b10 1dbe 6e87 8c3d

net.4.weight f4 [64, 128]
-0.01214201 0.04776369 0.01863719 0.0019177637 0.013478234 0.018735448 0.08123885 0.083455324
0.03747504 0.04628275 0.04105809 -0.045493893 -0.0011703315 0.03239789 -0.07485632 0.019248052
0.035268396 0.026476083 0.003201773 0.01248358 -0.041499253 -0.075807214 0.010926784 0.0525926
0.062762365 0.079725325 0.05400746 0.055367753 0.039073106 0.048805848 0.035559684 0.01874871
0.017058477 -0.02978958 -0.085589476 -0.0320705 -0.04734683 -0.002977605 0.028293528 -0.018596323
0.08043823 -0.048002902 -0.005925778 -0.028419487 0.0498893 0.024786362 0.004858772 -0.08035381
0.06756585 0.043722823 -0.028637366 0.04889214 -0.074952334 -0.0012808794 -0.061964247 -0.079349004
0.07986823 -0.02492419 -0.08951619 -0.028800296 0.083059944 -0.04483139 0.0058371914 -0.08420702
-0.006973313 -0.08934255 -0.030727591 -0.025149051 -0.053716715 0.012279442 0.0014353176 0.01678855
0.039349604 0.07210874 0.062823795 -0.036779623 -0.06561432 0.009387589 0.058444846 0.049113717
-0.07236281 -0.0267671 -0.071865536 -0.0057084667 0.08167342 -0.07801864 -0.0644513 0.07550908
-0.015272362 -0.025954902 -0.038764555 0.036022935 -0.040086016 -0.066817 -0.020902595 0.044708095
0.016747199 -0.057583947 -0.05900523 -0.033829693 -0.07644558 0.05135672 0.04376377 -0.07911925
0.06464058 0.04078131 0.032300737 0.017302025 -0.049597096 -0.018441217 -0.008446211 -0.023027213
0.056835603 -0.01923255 -0.041198578 -0.068927065 0.020339552 -0.014054431 -0.055236403 -0.022922931
-0.05489565 0.035206866 0.047879286 -0.054134034 -0.020055529 -0.060350977 0.06132644 0.053310577
0.0811398 0.043468542 0.06398348 0.075534776 -0.041441828 0.04577816 0.020993756 0.021545887
0.06795611 -0.053254094 0.012127534 0.06470914 -0.035747305 0.0868585 0.06783644 -0.023392629
0.033161853 0.030747812 0.08483579 0.08032078 -0.027911752 0.025512913 -0.05397852 0.04585095
-0.087643795 0.06363175 0.013478855 0.019835718 -0.038093172 0.021173798 -0.088003464 -0.016762858
-0.0040627145 -0.018891858 -0.027834544 0.01810275 0.049106807 -0.070993304 0.063622355 0.06615014
-0.05083915 -0.04103908 -0.021114724 0.01860805 -0.04382088 -0.055038463 -0.040958215 -0.055875108
0.04251928 -0.021973273 0.08262848 0.07686143 0.057613537 -0.07084273 0.020122949 -0.026164552
-0.08363351 -0.004558906 -0.061390925 0.046639044 -0.07854094 -0.0031143154 -0.051476546 0.04263751
0.06677615 0.0077793906 0.038971156 -0.05463267 -0.07940081 0.028228333 0.009002985 -0.030155662
-0.059866183 0.016388979 -0.07977291 0.019631704 -0.056140423 0.072373986 0.03931793 0.018929211
-0.08123489 -0.02805177 0.04223834 0.022898197 -0.08671372 0.05860954 0.055351537 -0.026761515
0.06671777 0.054459624 0.026539339 -0.05006702 -0.04410905 0.023710705 -0.040796775 0.06464554
0.016131165 0.068615995 -0.0641202 -0.0028629827 0.086284876 -0.0007447947 0.078301035 -0.022600826
-0.031148538 0.0821021 -0.046562213 -0.057307154 0.05243931 0.021792375 0.008581665 -0.039560024
0.0141548775 -0.067403 0.00094171485 0.049542934 0.024184555 -0.064049706 0.026953213 0.019070249
0.05611304 -0.005037387 0.0077658193 -0.00034107268 -0.014881282 0.049213793 0.06827602 0.01655788
00000000: 48ef 46bc dca3 433d 05ad 983c 795d fb3a
00000010: d0d3 5c3c 157b 993c 8e60 a63d a0ea aa3d
00000020: 6d7f 193d fb92 3d3d 872c 283d ce57 3abd
00000030: cf65 99ba a6b3 043d 454e 99bd 17ae 9d3c
00000040: 9875 103d 5fe4 d83c d6d4 513b ee87 4c3c
00000050: 1ffb 29bd d040 9bbd 4106 333c 576b 573d
00000060: 8e89 803d 0847 a33d ed36 5d3d 4cc9 623d
00000070: 1f0b 203d a4e8 473d 08a7 113d e596 993c
00000080: 38be 8b3c 4709 f4bc 8949 afbd 5b5c 03bd
00000090: c0ee 41bd ec23 43bb d4c7 e73c 5157 98bc
000000a0: ccbc a43d b19e 44bd 072d c2bb fccf e8bc
000000b0: b958 4c3d c50c cb3c 5536 9f3b 8a90 a4bd
000000c0: f75f 8a3d b416 333d e998 eabc 2043 483d
000000d0: 9c80 99bd 2ee3 a7ba 39ce 7dbd bb81 a2bd
000000e0: f491 a33d d12d ccbc 4454 b7bd 99ee ebbc
000000f0: 551b aa3d 1fa1 37bd e945 bf3b bb74 acbd
00000100: 6480 e4bb 3af9 b6bd 6eb8 fbbc 6205 cebc
00000110: 0f06 5cbd b62f 493c 4421 bc3a 2488 893c
00000120: 0d2d 213d bfad 933d c3a9 803d 3ba6 16bd
00000130: cd60 86bd 67ce 193c dd63 6f3d 772b 493d
00000140: f432 94bd ad46 dbbc 3d2e 93bd 170e bbbb
00000150: 6544 a73d 3dc8 9fbd 0bff 83bd 81a4 9a3d
00000160: ee38 7abc 609f d4bc 95c7 1ebd c98c 133d
00000170: 3c31 24bd 5ad7 88bd eb3b abbc d61f 373d
00000180: 6c31 893c 25dd 6bbd 78af 71bd 0191 0abd
00000190: 808f 9cbd 6d5b 523d a441 333d 4609 a2bd
000001a0: 4862 843d 4e0a 273d c74d 043d fabc 8d3c
000001b0: 5326 4bbd 0912 97bc fa61 0abc 91a3 bcbc
000001c0: 73cc 683d 958d 9dbc d7bf 28bd a229 8dbd
000001d0: 229f a63c 8e44 66bc 913f 62bd dfc8 bbbc
000001e0: 43da 60bd 1335 103d 121d 443d a6bb 5dbd
000001f0: 7e4b a4bc 9632 77bd 6f31 7b3d 315c 5a3d
00000200: a02c a63d 120c 323d c509 833d fab1 9a3d
00000210: e8be 29bd e181 3b3d 19fb ab3c 0081 b03c
00000220: 932c 8b3d f720 5abd 90b2 463c 3a86 843d
00000230: c46b 12bd dfe2 b13d d5ed 8a3d e6a1 bfbc
00000240: b9d4 073d d6e2 fb3c 63be ad3d 397f a43d
00000250: 30a7 e4bc 7500 d13c 9518 5dbd 35ce 3b3d
00000260: 977e b3bd 5d51 823d 6ad6 5c3c 847e a23c
00000270: 9607 1cbd ac74 ad3c 293b b4bd 4352 89bc
00000280: 8520 85bb 19c3 9abc 4505 e4bc 384c 943c
00000290: 3824 493d f064 91bd 704c 823d b979 873d
000002a0: b63c 50bd 9818 28bd c9f8 acbc e96f 983c
000002b0: 867d 33bd 0370 61bd cdc3 27bd 4cdd 64bd
000002c0: b228 2e3d 4b01 b4bc 1f39 a93d 8769 9d3d
000002d0: 2cfc 6b3d fe15 91bd e2d8 a43c 0b57 d6bc
000002e0: 0c48 abbd e062 95bb 0d75 7bbd 9508 3f3d
000002f0: 13da a0bd 8b19 4cbb 12d9 52bd aba4 2e3d
00000300: efc1 883d 42ea fe3b 38a0 1f3d 82c6 5fbd
00000310: e49c a2bd 1b3f e73c 4281 133c 0209 f7bc
00000320: 3e36 75bd 2e42 863c fb5f a3bd abd2 a03c
00000330: 80f3 65bd d038 943d d60b 213d 6f11 9b3c
00000340: 7a5e a6bd d3cc e5bc 1c02 2d3d 0095 bb3c
00000350: f696 b1bd 8f10 703d 4bb8 623d f73a dbbc
00000360: 54a3 883d 0e11 5f3d 0769 d93c 1313 4dbd
00000370: b1ab 34bd f43c c23c 851a 27bd e264 843d
00000380: 8125 843c 8b86 8c3d 7451 83bd e1a0 3bbb
00000390: 20b6 b03d 543e 43ba 4b5c a03d 5e25 b9bc
000003a0: 382b ffbc 2525 a83d 05b8 3ebd e8ba 6abd
000003b0: 9aca 563d ec85 b23c 1d9a 0c3c b109 22bd
000003c0: dce9 673c 960a 8abd 6add 763a 88ed 4a3d
000003d0: b01e c63c 7e2c 83bd fccc dc3c 3639 9c3c
000003e0: c9d6 653d aa10 a5bb 6a78 fe3b 00d2 b2b9
000003f0: 9fd0 73bc 6794 493d 4cd4 8b3d 64a4 873c

net.4.bias f4 [64]
-0.097818375 -0.087832354 0.1690699 -0.0126892235 -0.00815514 -0.04816945 -0.027673341 0.1927094
0.21256357 0.0016918721 0.34685728 -0.10506681 -0.050240442 0.14734778 0.028008377 0.6281118
0.29753298 -0.08564698 -0.07562586 0.13897373 0.28964671 -0.063092105 -0.09942335 0.018757585
0.3269569 0.07479907 -0.08196284 -0.042138085 0.6782058 0.9421931 0.48512083 0.4248135
-0.10535577 -0.07393836 0.40696982 -0.065863125 -0.045410216 -0.012722534 -0.105164565 0.26504272
0.14711837 0.5855206 -0.093423285 -0.038892858 0.25382414 0.49851954 0.37037128 -0.091991775
-0.067880206 -0.06977216 0.11183603 -0.07672638 0.011378166 0.4806915 -0.054718968 -0.039453488
-0.06509081 -0.026994454 0.39457673 0.27183667 0.26708832 0.03141037 0.173655 0.7405907
00000000: 0055 c8bd 73e1 b3bd a920 2d3e 76e6 4fbc
00000010: 239d 05bc 544d 45bd 34b3 e2bc 9d55 453e
00000020: 44aa 593e cfc1 dd3a 4797 b13e 452d d7bd
00000030: ecc8 4dbd 56e2 163e d371 e53c efcb 203f
00000040: 3e56 983e af67 afbd bbe1 9abd 214f 0e3e
00000050: 934c 943e 6f36 81bd 789e cbbd 82a9 993c
00000060: e566 a73e 4130 993d 22dc a7bd fc98 2cbd
00000070: e59e 2d3f 9133 713f c261 f83e 2881 d93e
00000080: c4c4 d7bd ff6c 97bd 595e d03e 3fe3 86bd
00000090: 1000 3abd 2d72 50bc 8560 d7bd aeb3 873e
000000a0: 33a6 163e aee4 153f b554 bfbd 1e4e 1fbd
000000b0: 3df5 813e f43d ff3e 4ea1 bd3e 2f66 bcbd
000000c0: c704 8bbd b5e4 8ebd 4a0a e53d b822 9dbd
000000d0: 7d6b 3a3c 321d f63e ff20 60bd fb99 21bd
000000e0: 554e 85bd 7923 ddbc f605 ca3e 2d2e 8b3e
000000f0: cdbf 883e 29a8 003d 9ed2 313e 5a97 3d3f

net.6.weight f4 [1, 64]
-0.0064371554 -0.020281382 -0.07700301 -0.10523328 -0.18156521 -0.06789113 0.09342254 0.23497693
0.16516621 -0.06379868 0.28675684 -0.082447596 0.067467436 0.11337104 -0.13592598 0.74036777
0.31640851 0.07547389 -0.10102731 0.15674636 0.17999236 0.012291834 0.09449745 0.06454291
0.37890816 0.06364546 0.015779585 0.054768533 0.6839954 1.0415235 0.62024987 0.56276774
-0.053908274 -0.006164927 0.46719053 -0.004351839 0.11101426 -0.16867419 -0.09897521 0.26403224
0.1516544 0.65609103 -0.09943037 -0.012910554 0.33181652 0.44049853 0.44903317 0.07094918
-0.07365547 -0.04741068 0.006720124 -0.012590364 -0.19740352 0.5910895 -0.0061865086 -0.14804836
0.014942254 0.0069784024 0.49804798 0.33308685 0.28857464 -0.2066113 0.16532166 0.8621749
00000000: c6ee d2bb 2425 a6bc c1b3 9dbd 8c84 d7bd
00000010: 3bec 39be 810a 8bbd 5154 bf3d cb9d 703e
00000020: 5521 293e e2a8 82bd cbd1 923e 49da a8bd
00000030: 5e2c 8a3d 132f e83d 2e30 0bbe be88 3d3f
00000040: 4c00 a23e 0e92 9a3d 68e7 cebd 1e82 203e
00000050: eb4f 383e b063 493c e187 c13d 132f 843d
00000060: 4000 c23e 8d58 823d 3044 813c f854 603d
00000070: 531a 2f3f a450 853f b2c8 1e3f 8c11 103f
00000080: ecce 5cbd 2803 cabb 9933 ef3e df99 8ebb
00000090: 725b e33d edb8 2cbe 84b3 cabd 3c2f 873e
000000a0: 4b4b 1b3e 95f5 273f 26a2 cbbd ca86 53bc
000000b0: dbe3 a93e 0689 e13e ade7 e53e ce4d 913d
000000c0: aed8 96bd b431 42bd 7c34 dc3b d047 4ebc
000000d0: 2624 4abe a451 173f 32b8 cabb fd99 17be
000000e0: 5bd0 743c 15ab e43b 2500 ff3e 5c8a aa3e
000000f0: 0ec0 933e ea91 53be 154a 293e 7fb7 5c3f
